…
3. Flow Bytes/s: 0.0753
4. Active Max: 0.0729
5. Bwd IAT Min: 0.0710
6. Fwd IAT Max: 0.0700
7. Flow IAT Max: 0.0576
8. Bwd IAT Mean: 0.0549
9. Flow IAT Min: 0.0498
10. Fwd IAT Mean: 0.0493

==================================================
Training 1D CNN Model
==================================================

Training 1D CNN model...
Model: "sequential"
_________________________________________________________________
 Layer (type)                Output Shape              Param #   
=================================================================
 conv1d (Conv1D)             (None, 21, 32)            128       
                                                                 
 max_pooling1d (MaxPooling1  (None, 10, 32)            0         
 D)                                                              
                                                                 
 batch_normalization (Batch  (None, 10, 32)            128       
 Normalization)                                                  
                                                                 
 conv1d_1 (Conv1D)           (None, 8, 64)             6208      
                                                                 
 max_pooling1d_1 (MaxPoolin  (None, 4, 64)             0         
 g1D)                                                            
                                                                 
 batch_normalization_1 (Bat  (None, 4, 64)             256       
 chNormalization)                                                
                                                                 
 flatten (Flatten)           (None, 256)               0         
                                                                 
 dense (Dense)               (None, 128)               32896     
                                                                 
 dropout (Dropout)           (None, 128)               0         
                                                                 
 dense_1 (Dense)             (None, 7)                 903       
                                                                 
=================================================================
Total params: 40519 (158.28 KB)
Trainable params: 40327 (157.53 KB)
Non-trainable params: 192 (768.00 Byte)
_________________________________________________________________
Epoch 1/50

 1/65 [..............................] - ETA: 38s - loss: 3.0150 - accuracy: 0.2812
…
Reshaped training set shape: (2303, 10, 8)
Reshaped test set shape: (576, 10, 8)

==================================================
Training CNN-LSTM Model
==================================================

Training CNN_LSTM model...
Model: "model"
_________________________________________________________________
 Layer (type)                Output Shape              Param #   
=================================================================
 input_1 (InputLayer)        [(None, 10, 8)]           0         
                                                                 
 conv1d (Conv1D)             (None, 10, 64)            1600      
                                                                 
 max_pooling1d (MaxPooling1  (None, 5, 64)             0         
 D)                                                              
                                                                 
 conv1d_1 (Conv1D)           (None, 5, 128)            24704     
                                                                 
 max_pooling1d_1 (MaxPoolin  (None, 2, 128)            0         
 g1D)                                                            
                                                                 
 bidirectional (Bidirection  (None, 2, 256)            263168    
 al)                                                             
                                                                 
 dropout (Dropout)           (None, 2, 256)            0         
                                                                 
 lstm_1 (LSTM)               (None, 64)                82176     
                                                                 
 dropout_1 (Dropout)         (None, 64)                0         
                                                                 
 dense (Dense)               (None, 7)                 455       
                                                                 
=================================================================
Total params: 372103 (1.42 MB)
Trainable params: 372103 (1.42 MB)
Non-trainable params: 0 (0.00 Byte)
_________________________________________________________________
Epoch 1/50
2025-04-26 22:21:12.807614: I tensorflow/core/grappler/optimizers/custom_graph_optimizer_registry.cc:114] Plugin optimizer for device_type GPU is enabled.
…
WARNING:absl:There is a known slowdown when using v2.11+ Keras optimizers on M1/M2 Macs. Falling back to the legacy Keras optimizer, i.e., `tf.keras.optimizers.legacy.Adam`.

==================================================
Training CNN-GRU Model
==================================================

Training CNN_GRU model...
Model: "model_2"
_________________________________________________________________
 Layer (type)                Output Shape              Param #   
=================================================================
 input_2 (InputLayer)        [(None, 10, 8)]           0         
                                                                 
 conv1d_2 (Conv1D)           (None, 10, 64)            1600      
                                                                 
 max_pooling1d_2 (MaxPoolin  (None, 5, 64)             0         
 g1D)                                                            
                                                                 
 conv1d_3 (Conv1D)           (None, 5, 128)            24704     
                                                                 
 max_pooling1d_3 (MaxPoolin  (None, 2, 128)            0         
 g1D)                                                            
                                                                 
 bidirectional_1 (Bidirecti  (None, 2, 256)            198144    
 onal)                                                           
                                                                 
 dropout_2 (Dropout)         (None, 2, 256)            0         
                                                                 
 gru_1 (GRU)                 (None, 64)                61824     
                                                                 
 dropout_3 (Dropout)         (None, 64)                0         
                                                                 
 dense_1 (Dense)             (None, 7)                 455       
                                                                 
=================================================================
Total params: 286727 (1.09 MB)
Trainable params: 286727 (1.09 MB)
Non-trainable params: 0 (0.00 Byte)
_________________________________________________________________
Epoch 1/50
2025-04-26 22:21:55.222791: I tensorflow/core/grappler/optimizers/custom_graph_optimizer_registry.cc:114] Plugin optimizer for device_type GPU is enabled.
…
